Training : 28/04/2017 09:46:48


[ARCHITECTURE]


_________________________________________________________________
Layer (type)                 Output Shape              Param #   
=================================================================
conv1d_1 (Conv1D)            (None, 144, 256)          46848     
_________________________________________________________________
max_pooling1d_1 (MaxPooling1 (None, 72, 256)           0         
_________________________________________________________________
conv1d_2 (Conv1D)            (None, 70, 256)           196864    
_________________________________________________________________
max_pooling1d_2 (MaxPooling1 (None, 35, 256)           0         
_________________________________________________________________
conv1d_3 (Conv1D)            (None, 33, 256)           196864    
_________________________________________________________________
conv1d_4 (Conv1D)            (None, 31, 256)           196864    
_________________________________________________________________
conv1d_5 (Conv1D)            (None, 29, 256)           196864    
_________________________________________________________________
max_pooling1d_3 (MaxPooling1 (None, 14, 256)           0         
_________________________________________________________________
flatten_1 (Flatten)          (None, 3584)              0         
_________________________________________________________________
dense_1 (Dense)              (None, 1024)              3671040   
_________________________________________________________________
dropout_1 (Dropout)          (None, 1024)              0         
_________________________________________________________________
dense_2 (Dense)              (None, 1024)              1049600   
_________________________________________________________________
dropout_2 (Dropout)          (None, 1024)              0         
_________________________________________________________________
dense_3 (Dense)              (None, 5)                 5125      
=================================================================
Total params: 5,560,069
Trainable params: 5,560,069
Non-trainable params: 0
_________________________________________________________________
None 




[CLASSIFICATION REPORT]

              precision    recall  f1-score   support

       Zola       0.09      0.01      0.01      7926
   Flaubert       0.22      1.00      0.36      8294
…
