Training : 28/04/2017 10:28:20


[ARCHITECTURE]


_________________________________________________________________
Layer (type)                 Output Shape              Param #   
=================================================================
conv1d_1 (Conv1D)            (None, 370, 256)          46848     
_________________________________________________________________
max_pooling1d_1 (MaxPooling1 (None, 185, 256)          0         
_________________________________________________________________
conv1d_2 (Conv1D)            (None, 183, 256)          196864    
_________________________________________________________________
max_pooling1d_2 (MaxPooling1 (None, 91, 256)           0         
_________________________________________________________________
conv1d_3 (Conv1D)            (None, 89, 256)           196864    
_________________________________________________________________
conv1d_4 (Conv1D)            (None, 87, 256)           196864    
_________________________________________________________________
conv1d_5 (Conv1D)            (None, 85, 256)           196864    
_________________________________________________________________
max_pooling1d_3 (MaxPooling1 (None, 42, 256)           0         
_________________________________________________________________
flatten_1 (Flatten)          (None, 10752)             0         
_________________________________________________________________
dense_1 (Dense)              (None, 1024)              11011072  
_________________________________________________________________
dropout_1 (Dropout)          (None, 1024)              0         
_________________________________________________________________
dense_2 (Dense)              (None, 1024)              1049600   
_________________________________________________________________
dropout_2 (Dropout)          (None, 1024)              0         
_________________________________________________________________
dense_3 (Dense)              (None, 5)                 5125      
=================================================================
Total params: 12,900,101
Trainable params: 12,900,101
Non-trainable params: 0
_________________________________________________________________
None 




[CLASSIFICATION REPORT]

              precision    recall  f1-score   support

       Zola       0.00      0.00      0.00      2351
   Flaubert       0.20      1.00      0.33      2450
…
