Training : 27/04/2017 13:11:05


[ARCHITECTURE]


_________________________________________________________________
Layer (type)                 Output Shape              Param #   
=================================================================
conv1d_1 (Conv1D)            (None, 250, 256)          46848     
_________________________________________________________________
max_pooling1d_1 (MaxPooling1 (None, 125, 256)          0         
_________________________________________________________________
conv1d_2 (Conv1D)            (None, 123, 256)          196864    
_________________________________________________________________
max_pooling1d_2 (MaxPooling1 (None, 61, 256)           0         
_________________________________________________________________
conv1d_3 (Conv1D)            (None, 59, 256)           196864    
_________________________________________________________________
conv1d_4 (Conv1D)            (None, 57, 256)           196864    
_________________________________________________________________
conv1d_5 (Conv1D)            (None, 55, 256)           196864    
_________________________________________________________________
max_pooling1d_3 (MaxPooling1 (None, 27, 256)           0         
_________________________________________________________________
flatten_1 (Flatten)          (None, 6912)              0         
_________________________________________________________________
dense_1 (Dense)              (None, 1024)              7078912   
_________________________________________________________________
dropout_1 (Dropout)          (None, 1024)              0         
_________________________________________________________________
dense_2 (Dense)              (None, 1024)              1049600   
_________________________________________________________________
dropout_2 (Dropout)          (None, 1024)              0         
_________________________________________________________________
dense_3 (Dense)              (None, 5)                 5125      
=================================================================
Total params: 8,967,941
Trainable params: 8,967,941
Non-trainable params: 0
_________________________________________________________________
None 




[CLASSIFICATION REPORT]

              precision    recall  f1-score   support

       Zola       0.20      0.08      0.12      1180
   Flaubert       0.44      0.83      0.58      2557
…
