…
        },
        {
            "location": "/author_recognition/#model-details",
            "text": "Our model is largely inspired by the paper  Character-level Convolutional Networks for Text Classification . We adapted it to fit our purpose the best.",
            "title": "Model details"
        },
        {
            "location": "/author_recognition/#architecture",
            "text": "Our architecture is 8 layers deep, with 5 convolutional layers and 3 fully-connected layers.  Here is a summary of the described architecture:     Layer (type)  Output Shape  Param #      conv1d_1 (Conv1D)  (None, 250, 256)  46848    max_pooling1d_1 (MaxPooling1)  (None, 125, 256)  0    conv1d_2 (Conv1D)  (None, 123, 256)  196864    max_pooling1d_2 (MaxPooling1)  (None, 61, 256)  0    conv1d_3 (Conv1D)  (None, 59, 256)  196864    conv1d_4 (Conv1D)  (None, 57, 256)  196864    conv1d_5 (Conv1D)  (None, 55, 256)  196864    max_pooling1d_3 (MaxPooling1)  (None, 27, 256)  0    flatten_1 (Flatten)  (None, 6912)  0    dense_1 (Dense)  (None, 1024)  7078912    dropout_1 (Dropout)  (None, 1024)  0    dense_2 (Dense)  (None, 1024)  1049600    dropout_2 (Dropout)  (None, 1024)  0    dense_3 (Dense)  (None, 5)  5125",
            "title": "Architecture"
        },
        {
            "location": "/author_recognition/#dataset-and-input",
            "text": "The solution we've implemented is character-level based. This means that we encode each character and then group some of them together in a matrix and then give it to the network. The encoding used is the  one-hot encoding . We've decided to only deal w
…
